constrained_2d.pt (torch_old, 22767 bytes, 5 tensors)

linear1.weight f4 [100, 2]
0	0x3ec3847b	0.38187012
1	0xbce25819	-0.027629899
2	0x3f22db5d	0.6361597
3	0x3f2d2a81	0.6764298
4	0x3dc605c3	0.09669068
5	0xbec2d8c9	-0.3805602
6	0xbe27c170	-0.16382384
7	0x3f265993	0.6498043
8	0x3c40fb33	0.011778641
9	0x3f94c6f5	1.1623217
10	0x3f95bc26	1.1698043
11	0xbe942737	-0.2893617
12	0x3ed48352	0.4150644
13	0xbd660135	-0.056153495
14	0xbed7b7fa	-0.4213255
15	0x3f25895e	0.6466273
16	0xbf272c88	-0.65302324
17	0x3f04e144	0.5190623
18	0x3e53f827	0.20700131
19	0xbf86da0c	-1.0535293
20	0x3de41180	0.1113615
21	0x3e7f286f	0.24917768
22	0xbe726742	-0.23672202
23	0x3f8eebd5	1.116572
24	0xbeb94a61	-0.3618956
25	0xbdd46128	-0.103700936
26	0x3e221513	0.15828352
27	0xbf6cf40b	-0.9255988
28	0x3b0df99f	0.0021663678
29	0x3ebe717f	0.37195966
30	0x3ed626b5	0.41826406
31	0x3f891458	1.0709333
32	0xbf43666f	-0.76328176
33	0xbefc198c	-0.4923824
34	0xbf13b8cc	-0.5770385
35	0x3dd3e5b7	0.10346549
36	0xbf3c69cb	-0.7359893
37	0xbe1f23f4	-0.15541059
38	0x3f77da37	0.96817344
39	0x3e9957e3	0.29949865
40	0xbe76d409	-0.24104322
41	0x3be386d0	0.006943561
42	0x3f8666de	1.0500143
43	0x3ea5f784	0.32415402
44	0x3ee939dc	0.45551956
45	0xbd43d272	-0.04780812
46	0xbf524b25	-0.8214591
47	0xbe5705b8	-0.20998275
48	0xbee3ff3e	-0.44530672
49	0x3d9be3cb	0.076118074
50	0xbf25cbe6	-0.6476425
51	0x3e2f219c	0.17102665
52	0x3e70769c	0.23482746
53	0x3f8c12b2	1.0943205
54	0xbe158be0	-0.1460414
55	0xbdf9a919	-0.12190456
56	0x3e226b28	0.1586119
57	0x3e1a18ad	0.15048476
58	0x3e8fb05d	0.28064242
59	0xbf2df203	-0.67947406
60	0x3e180735	0.148465
61	0x3e66988a	0.22519127
62	0x3b6658d9	0.0035148172
63	0x3ea3d5e7	0.31999132
64	0x3e83f992	0.25776345
65	0xbf31178f	-0.6917657
66	0xbdfd98d3	-0.123826645
67	0xbe71bf1f	-0.23608063
68	0x3ef81e44	0.4846059
69	0x3f23f093	0.6403896
70	0x3eb70dc0	0.35752678
71	0xbf331e61	-0.6996823
72	0x3ecc4729	0.3989804
73	0x3f2fc84b	0.68665
74	0x3d9a6c7d	0.07540224
75	0x3e3201b2	0.17383459
76	0xbe26e2f5	-0.16297515
77	0x3efc40db	0.4926823
78	0xbbd37ac2	-0.006453843
79	0x3f0ea04d	0.5571335
80	0xbe089812	-0.1333926
81	0x3f875769	1.057355
82	0xbd485b62	-0.048915274
83	0xbe9e008b	-0.3085979
84	0x3f4f8314	0.81059384
85	0x3e901a16	0.28144902
86	0xbf29c376	-0.66313875
87	0xbf1b942e	-0.6077298
88	0xbec7fd5b	-0.39060482
89	0x3cbfbca2	0.023405377
90	0x3e362b66	0.17789993
91	0x3e8d3380	0.27578354
92	0xbf60f1ed	-0.8786915
93	0x3e3fb36d	0.18720789
94	0x3f3ddc05	0.7416385
95	0xbea6941b	-0.3253487
96	0x3f3d350c	0.7390907
97	0x3ef65ac2	0.48116118
98	0xbc909139	-0.017647373
99	0x3ec0476a	0.37554485
100	0x3f4945f4	0.78622365
101	0x3ee7e0b7	0.4528863
102	0x3baaa0aa	0.005207141
103	0x3ec01afa	0.3752058
104	0xbeae2ff9	-0.34020975
105	0xbf73835a	-0.951223
106	0x3e397c5a	0.18113843
107	0xbeef8185	-0.46778503
108	0xbf22ddbf	-0.6361961
109	0x3dbcfc84	0.09227851
110	0x3d38ced4	0.04511912
111	0xbf29eb94	-0.6637509
112	0xbd91c07c	-0.071167916
113	0xbe3417d5	-0.17587216
114	0xbe5a260e	-0.21303579
115	0x3f308a99	0.68961483
116	0xbeb85934	-0.36005557
117	0xbd0848b5	-0.033272464
118	0xbcb65365	-0.022256562
119	0x3f4b53db	0.7942483
120	0xbea6e8e1	-0.32599548
121	0xbdadc923	-0.084856294
122	0xbd0c86e2	-0.03430832
123	0x3f9c8e92	1.2231009
124	0xbf255f1c	-0.6459825
125	0x3ee42478	0.44559073
126	0x3ecafe19	0.39646986
127	0xbcced798	-0.025249287
128	0xbf61fcee	-0.88276565
129	0x3e3a622c	0.18201512
130	0xbebcabdd	-0.3684987
131	0xbe91e183	-0.28492364
132	0xbf9cfa1b	-1.2263826
133	0x3d176c3e	0.036968462
134	0x3db4385b	0.087998115
135	0x3e93e35e	0.28884405
136	0x3e10dcf0	0.14146781
137	0x3ed358d8	0.4127872
138	0x3ee8c4a8	0.45462537
139	0xbd18ca08	-0.037302047
140	0xbe395aaa	-0.18100992
141	0xbe3b5a70	-0.18296218
142	0x3f9bf04b	1.2182707
143	0xbe63cdd2	-0.22246483
144	0xbfae7afc	-1.3631282
145	0x3d9b18a0	0.07573056
146	0xbef21f44	-0.4728948
147	0x3e800e58	0.25010943
148	0xbf9cc1c8	-1.2246637
149	0x3e654bcc	0.22392195
150	0xbca020fe	-0.019546982
151	0xbe2a0ac9	-0.16605677
152	0x3ca1817d	0.019715065
153	0xbf9b79c6	-1.2146537
154	0xbf1fa1de	-0.62356365
155	0x3ec2fd5d	0.38083926
156	0xbf0e5b18	-0.5560775
157	0x3dcc87bd	0.099868275
158	0x3f33498e	0.7003411
159	0xbdbed4f9	-0.09317965
160	0xbf1b208a	-0.60596526
161	0xbef79380	-0.4835472
162	0x3c84e645	0.016223082
163	0x3eb39790	0.3507657
164	0xbe7ca04f	-0.24670528
165	0xbd18a7ea	-0.03726951
166	0x3f1359ba	0.57558787
167	0xbdbf681f	-0.093460314
168	0x3f148667	0.5801758
169	0x3b98934b	0.0046562306
170	0xbeff270f	-0.49834487
171	0x3e0532df	0.13007687
172	0x3f5f32f3	0.8718712
173	0x3ecd4bf7	0.4009702
174	0xbf2fbbb4	-0.6864579
175	0xbf04da40	-0.51895523
176	0xbeeff91e	-0.4686975
177	0xbed98a42	-0.42488295
178	0x3e8e522f	0.27797076
179	0xbf290cb6	-0.6603502
180	0xbf427aae	-0.75968444
181	0xbee0cdff	-0.43907163
182	0x3eabca2f	0.3355269
183	0x3f83cda9	1.0297137
184	0xbebe865c	-0.37211883
185	0x3f19d296	0.60086954
186	0xbd04476e	-0.032294683
187	0x3f0ae58a	0.542565
188	0x3f720bbe	0.9454917
189	0x3ea91a75	0.33027998
190	0x3f15dbd1	0.5853854
191	0xbec09f83	-0.37621698
192	0xbf9cf348	-1.2261744
193	0xbd6c4103	-0.057679188
194	0xbdea1412	-0.11429609
195	0xbf144752	-0.57921326
196	0xbdaa93b4	-0.083289534
197	0x3f0891f6	0.5334772
198	0xbf98b05e	-1.1928823
199	0xbdcf33b7	-0.10117286

linear1.bias f4 [100]
0	0xbf3bff86	-0.7343677
1	0x3f417a5f	0.7557735
2	0x3e3317df	0.17489575
3	0xbf6848c4	-0.9073603
4	0x3db18865	0.08668593
5	0x3f054de3	0.5207197
6	0xbf2968cf	-0.6617555
7	0xbf871394	-1.055285
8	0x3f169645	0.58823043
9	0xbef56cd4	-0.47934592
10	0xbf5a188e	-0.8519372
11	0x3f061929	0.5238214
12	0xbf0e38eb	-0.555556
13	0x3e8ee622	0.27909952
14	0xbf59caea	-0.8507525
15	0x3ed36811	0.41290334
16	0xbf1f0ccb	-0.62128896
17	0x3f60dd2c	0.8783748
18	0x3e5dfe8a	0.2167913
19	0x3e48ff22	0.19628575
20	0xbb1291ce	-0.0022364738
21	0x3ede1675	0.43376508
22	0xbf7d9970	-0.9906225
23	0x3f3ab160	0.729269
24	0x3f5c5b24	0.8607657
25	0x3edcd2d1	0.4312959
26	0x3f5a4785	0.8526538
27	0x3eb78207	0.3584139
28	0x3efe67ff	0.49688718
29	0x3dd2e914	0.102983624
30	0xbf671e8e	-0.90281
31	0xbf0188f9	-0.5059963
32	0x3f3f75fb	0.747894
33	0x3f5dabf1	0.86590487
34	0xbf14de18	-0.5815139
35	0x3f0401fb	0.5156552
36	0xbf10b56b	-0.5652682
37	0x3df48097	0.11938589
38	0x3dcf3c9a	0.10118981
39	0xbf6a615f	-0.91554826
40	0x3eca30d5	0.3949038
41	0x3f611675	0.8792489
42	0xbf77792f	-0.96669286
43	0xbf0a4be5	-0.54022056
44	0x3ec96669	0.39335945
45	0xbfa43043	-1.2827228
46	0xbf3c0954	-0.73451734
47	0xbe4a24b0	-0.19740558
48	0x3f062de5	0.5241378
49	0xbf41ba9e	-0.7567538
50	0x3f613c40	0.8798256
51	0xbf68af92	-0.908929
52	0xbeb9a280	-0.3625679
53	0x3e48138a	0.19538704
54	0x3efbc2ad	0.49171963
55	0x3f61a4f4	0.88142323
56	0x3ead7017	0.3387458
57	0xbf5b3ca4	-0.85639405
58	0x3f7895b9	0.9710346
59	0x3f6146dc	0.8799875
60	0x3f85e343	1.045998
61	0x3ee3d72b	0.44500098
62	0x3f519b25	0.81877357
63	0xbf61ffbe	-0.88280857
64	0x3e837423	0.25674543
65	0xbf31116c	-0.6916721
66	0x3ddbe722	0.107374445
67	0x3ef26ece	0.47350162
68	0xbdb694b1	-0.089150794
69	0xbf8939a9	-1.0720721
70	0x3f5a8b28	0.85368586
71	0x3ef06d62	0.46958452
72	0x3cf78b7f	0.030217884
73	0xbb18f018	-0.0023336466
74	0xbf12fcc4	-0.5741694
75	0x3f63ab86	0.889336
76	0xbead36b9	-0.33830813
77	0xbd8b0ada	-0.06789179
78	0xbe98a983	-0.29816827
79	0xbf433875	-0.7625802
80	0x3f5ce777	0.8629069
81	0xbf5a3f90	-0.8525324
82	0xbecad94d	-0.39618912
83	0xbf6a1ac6	-0.91447103
84	0xbf8c6acb	-1.0970091
85	0x3f647ebb	0.89255875
86	0x3ea9d9f9	0.33174112
87	0xbf4f0f72	-0.8088294
88	0x3f4300ec	0.7617328
89	0x3f6ca319	0.9243637
90	0x3f616c66	0.8805603
91	0xbf5ee3ee	-0.87066543
92	0xbf1ceb50	-0.6129656
93	0xbf791a3d	-0.9730566
94	0x3f3cb6e0	0.73716545
95	0x3eebea1b	0.46077046
96	0x3e8f3802	0.27972418
97	0x3f5af637	0.85531944
98	0x3db9d80f	0.09074413
99	0x3df99cef	0.12188136

linear2.weight f4 [50, 100]
0	0xbdf9de51	-0.122006066
1	0xbd4199d4	-0.047265843
2	0xbe0897cc	-0.13339156
3	0x3e177edb	0.14794485
4	0xbd2df683	-0.04247142
5	0xbe66a7f0	-0.22525
6	0xbd0ecb18	-0.034861654
7	0x3e78ad85	0.24284942
8	0x3d3cc980	0.046090603
9	0x3d0bf686	0.03417065
10	0x3e839d18	0.2570579
11	0x3d12f93e	0.035882227
12	0x3e103645	0.14083202
13	0xbd1f62e5	-0.038912673
14	0x3e3e16d7	0.185634
15	0xbd5c21ea	-0.05374328
16	0x3e37de83	0.17955975
17	0xbe0127c2	-0.12612823
18	0x3e9cf4c6	0.30655497
19	0xbe3b12f9	-0.18268956
20	0x3d9461b8	0.07245201
21	0xbd77af79	-0.06047008
22	0x3e35e38f	0.17762588
23	0x3ea839fc	0.3285674
24	0xbe1e459b	-0.1545624
25	0xbd2c73d3	-0.042102646
26	0xbd6ab9ff	-0.057306286
27	0xbd382cb2	-0.0449645
28	0xbd8f3da8	-0.06994182
29	0x3d78f77a	0.060782887
30	0x3dd9b617	0.10630434
31	0xbdeda766	-0.11604194
32	0xbe583b2f	-0.21116327
33	0xbe96c439	-0.2944658
34	0xbdcd16ae	-0.100140914
35	0xbe12e60a	-0.14345565
36	0x3cca168f	0.02466896
37	0x3d8ff2dc	0.070287436
38	0x3dd95fae	0.106139526
39	0x3c34932b	0.011021416
40	0xbd9bf9fc	-0.0761604
41	0xbe519516	-0.20467028
42	0xbe9e29d8	-0.308913
43	0x3da4f05c	0.080536574
44	0x3e581ba1	0.2110429
45	0xbe0b8bf3	-0.13627605
46	0x3ea0793c	0.31342494
47	0xbd47030b	-0.048586886
48	0xbdb8b92e	-0.09019695
49	0x3e63aac1	0.22233106
50	0xbdc03c5e	-0.09386514
51	0x3e6a9628	0.22908843
52	0xbca05e70	-0.019576281
53	0x3d2f8b6b	0.04285757
54	0x3d6909ae	0.056893997
55	0xbdb13892	-0.08653368
56	0xbdede65c	-0.11616203
57	0x3cc8d54a	0.024515767
58	0xbdacf815	-0.084457554
59	0xb935d64d	-0.00017341338
60	0xbddd2577	-0.107981615
61	0xbdbaf62d	-0.091289856
62	0xbd121332	-0.035662837
63	0xbcfb18c4	-0.030651458
64	0x39a7a816	0.00031977956
65	0xb93f9059	-0.00018268953
66	0x3ed4914f	0.41517112
67	0xbdcbd040	-0.0995183
68	0x3cf09320	0.02936703
69	0x3dc81933	0.09770431
70	0xbd0b31f1	-0.033983175
71	0xbe85a96f	-0.2610583
72	0x3f09a2ba	0.53763926
73	0x3b0c760f	0.0021432673
74	0x3e6cd07f	0.2312641
75	0xbcf69af6	-0.030103188
76	0x3ddf64ce	0.10907899
77	0x3d723af6	0.05913826
78	0x3e5557e9	0.20834316
79	0x3db1365e	0.08652948
80	0x3dae18ac	0.085007995
81	0x3e1f8036	0.15576252
82	0x3e5c471d	0.21511503
83	0x3d4080e2	0.046997912
84	0xbdbcf4aa	-0.092263535
85	0x3c9beef9	0.01903485
86	0xbe197644	-0.14986521
87	0xba8c3452	-0.0010696745
88	0x3dc97c25	0.09838132
89	0xbe5841cc	-0.2111885
90	0x3dbb59c4	0.09147981
91	0xbda1a593	-0.07892909
92	0x3dd1fb6c	0.10253033
93	0x3e55d0a2	0.20880368
94	0xbdfaca40	-0.122456074
95	0xbdcf3cab	-0.10118993
96	0x3f12ce50	0.5734606
97	0x3c33e645	0.0109801935
98	0x3d726148	0.059174806
99	0x3e8d7cb9	0.27634218
100	0xbe20426c	-0.15650338
101	0x3de1800b	0.110107504
102	0x3d01cb2d	0.031687904
103	0xbe6d1fe0	-0.2315669
104	0xbc988fcb	-0.018623253
105	0x3ddaa1d1	0.10675395
106	0xbdd4ddad	-0.10393844
107	0xbe1c3076	-0.15252861
108	0x3daa7178	0.08322424
109	0xbd30d49f	-0.04317152
110	0xbedd37f7	-0.4320676
111	0xbdaaa805	-0.083328284
112	0xbdce3270	-0.10068214
113	0x3db81736	0.08988802
114	0xbe514be0	-0.204391
115	0x3e1d12d0	0.15339208
116	0xbcc7989b	-0.02436476
117	0x3e62445a	0.22096387
118	0xbea343ad	-0.3188757
119	0x3e2b8518	0.1674999
120	0x3d83424c	0.064091295
121	0x3e113a32	0.14182356
122	0xbe4a8f34	-0.1978119
123	0xbe5e9af5	-0.21738799
124	0x3e89af3d	0.2689151
125	0x3d932651	0.07185043
126	0x3dd322e1	0.10309387
127	0x3e48226f	0.19544385
128	0x3c6df42e	0.014523549
129	0x3cbdb653	0.023158228
130	0xbe67fd36	-0.22655186
131	0xbdb25e48	-0.08709389
132	0x3dadf814	0.08494583
133	0x3ece0733	0.40239868
134	0x3e1ca6a9	0.15297951
135	0x3e0450d2	0.12921456
136	0x3d3918a9	0.045189533
137	0xbd12c528	-0.035832554
138	0xbd0bdee7	-0.034148123
139	0xbd5af01a	-0.053451635
140	0xbd93e979	-0.07222266
141	0x3e9c5d86	0.30540103
142	0x3e9a9748	0.30193543
143	0xbaff47dd	-0.0019476373
144	0xbd5254cc	-0.0513504
145	0xbe37c263	-0.17945246
146	0xbde02606	-0.109447524
147	0xbd926618	-0.07148379
148	0x3e302806	0.17202768
149	0xbe5a9225	-0.21344812
150	0x3df76c25	0.12081174
151	0xbea40e3d	-0.32042113
152	0xbca4ab49	-0.020101206
153	0x3d71993e	0.058984034
154	0x3ded995a	0.11601515
155	0x3da12d14	0.07869926
156	0x3e92115c	0.2852887
157	0xbe801fce	-0.25024265
158	0x3ddca919	0.1077444
159	0x3ccaa91f	0.024738846
160	0x3e8d8a1a	0.27644426
161	0x3db88427	0.09009581
162	0x3da6e6ee	0.08149515
163	0xbde6cfb1	-0.11270083
164	0xbb59d5c5	-0.0033238989
165	0xbc5d53c9	-0.0135087455
166	0xbe805e3c	-0.25071895
167	0xbdc05dee	-0.09392916
168	0x3c129736	0.008947184
169	0xbe5e763d	-0.21724792
170	0x3eb357ee	0.35028023
171	0x3e06a307	0.13148127
172	0xbeb51685	-0.35368744
173	0xbcd0dabc	-0.025494926
174	0xbe0f00f4	-0.13965207
175	0x3e49dadd	0.19712396
176	0xbbcaa56f	-0.006184272
177	0x3be61cc1	0.0070224707
178	0xbd0e3d34	-0.034726337
179	0xbdb4a487	-0.088204436
180	0xbe2d39fa	-0.16916648
181	0xbe733b3b	-0.23753063
182	0xbbb3bc79	-0.005485114
183	0xbde134a0	-0.109963655
184	0xbdf83fde	-0.12121557
185	0x3dc5f199	0.09665222
186	0x3d72a0a6	0.059235238
187	0xbd7962d5	-0.06088527
188	0xbd785aae	-0.060633354
189	0x3e30b056	0.17254767
190	0xbdfdfeef	-0.1240214
191	0x3d856536	0.06513445
192	0xbe2abc71	-0.16673447
193	0xbe34d284	-0.1765843
194	0x3e1ebb11	0.15501048
195	0x3d85a191	0.06524957
196	0xbec3ffb0	-0.38281012
197	0x3d16f3b7	0.03685352
198	0xbdb46975	-0.08809177
199	0xbed6c800	-0.41949463
200	0xbd025735	-0.03182145
201	0xbdfc1f96	-0.12310712
202	0x3dfc0366	0.12305336
203	0xbd328a9d	-0.043589223
204	0x3e872857	0.26397964
205	0x3b89ca63	0.0042050346
206	0xbe029198	-0.12750852
207	0xbdd74359	-0.105108924
208	0x3e18ad41	0.14909841
209	0x3d26216c	0.040559217
210	0xbd1251d7	-0.03572258
211	0xbe07e865	-0.13272245
212	0x3d5acaed	0.05341618
213	0xbc2d243e	-0.010567723
214	0xbd082059	-0.033233974
215	0xbc349b65	-0.011023377
216	0x3e0f89c5	0.14017399
217	0xbc08d63a	-0.008351857
218	0xbdf97d93	-0.121821545
219	0xbc8e9879	-0.017406689
220	0x3e57bc5a	0.21067944
221	0xbdfef928	-0.124498665
222	0xbe078e66	-0.13237914
223	0xbe813b51	-0.25240567
224	0x3dbc4d44	0.09194425
225	0x3c8132d9	0.015771316
226	0x3d0b0c65	0.033947367
227	0x3db0c8fd	0.086320855
228	0xbd588414	-0.052860335
229	0x3e0b1b84	0.13584715
230	0x3d2b69f2	0.041849084
231	0xbd44412d	-0.04791372
232	0x3d96f4f4	0.0737094
233	0xbb74a8cf	-0.0037332063
234	0x3e28a059	0.16467418
235	0x3e0d6352	0.13807419
236	0x3e0e92db	0.13923208
237	0xbe22a308	-0.15882504
238	0x3cc3ad58	0.023886368
239	0x3d953d11	0.07287038
240	0xb9dbf568	-0.00041953777
241	0x3c73dd3a	0.0148842875
242	0x3e9fb730	0.31194448
243	0x3e125f2c	0.14294118
244	0xbb3b23a3	-0.0028555177
245	0x3e3dc32f	0.18531488
246	0xbb8c2eb5	-0.004278029
247	0xbdb2cc84	-0.087304145
248	0xbda4a4b7	-0.08039229
249	0xbe113371	-0.1417978
250	0xbc2ebcdc	-0.010665145
251	0xbcbc8c07	-0.023015989
252	0xbcb3165c	-0.021861248
253	0x3e215651	0.15755583
254	0x3d832c1a	0.06404896
255	0xbd8e4d82	-0.06948377

linear2.bias f4 [50]
0	0x3cae8d69	0.021307664
1	0x3dbc1b1a	0.09184857
2	0xbe201136	-0.15631565
3	0x3e4fdcb1	0.20299031
4	0xbedc1a57	-0.42988846
5	0xbd39ed54	-0.04539235
6	0x3d044f86	0.032302402
7	0x3bdf12a4	0.006807642
8	0xbe69315b	-0.22772734
9	0xbc7612f7	-0.01501917
10	0xbd1fb60c	-0.038991973
11	0x3e852867	0.26007387
12	0xbc5c4094	-0.013443131
13	0xbdb0d3c0	-0.08634138
14	0x3e257a55	0.16159947
15	0x3d332f40	0.043746233
16	0x3d0ace3e	0.033888094
17	0xbe5ed19b	-0.21759646
18	0xbd2f1842	-0.042747743
19	0xbe31056e	-0.17287228
20	0xbdd20e74	-0.10256663
21	0xbdb2e012	-0.08734144
22	0xbde69ece	-0.11260758
23	0xbd47a4d4	-0.048741177
24	0x3de4d6e9	0.11173803
25	0x3d23be23	0.03997625
26	0xbdbde111	-0.09271444
27	0xbe106f6a	-0.14105001
28	0x3e3c54d0	0.18391728
29	0xbd5fff02	-0.054686554
30	0x3dc8c74f	0.0980364
31	0x3d7714b5	0.060322482
32	0x3d888c80	0.06667423
33	0xbc77e5b6	-0.015130451
34	0x3c874924	0.016514368
35	0x3ec7ce2b	0.3902448
36	0xbe577abf	-0.21042918
37	0x3eb70f24	0.3575374
38	0xbe1dc72f	-0.15408014
39	0x3d983c82	0.07433416
40	0xbcbbbc50	-0.022916943
41	0x3d74eed4	0.059798077
42	0xbdcc1705	-0.09965328
43	0x3e9d2dd9	0.3069904
44	0xbe7a0ed7	-0.24419723
45	0xbd41c4d5	-0.047306854
46	0x3e3d359e	0.18477485
47	0xbc2134c8	-0.009839244
48	0x3e9435b3	0.2894722
49	0x3e7a6e74	0.24456197

linear3.weight f4 [1, 50]
0	0x3e857a0a	0.2606967
1	0xbeab49c0	-0.33454704
2	0xbeea8f01	-0.45812228
3	0xbecc6abe	-0.39925188
4	0xbf6bef0e	-0.92161644
5	0x3e382b21	0.17985202
6	0xbde39ca2	-0.1111386
7	0xbe55cf6f	-0.20879911
8	0xbe3365ed	-0.1751935
9	0x3f466977	0.77504677
10	0x3e994b18	0.29940104
11	0x3eef0450	0.46682978
12	0xbe33297d	-0.17496295
13	0x3e81d197	0.25355217
14	0x3eb17b0c	0.3466419
15	0xbe4b824c	-0.19873923
16	0x3e533828	0.2062689
17	0xbcac5a41	-0.02103913
18	0xbd455630	-0.048177898
19	0x3edd0030	0.43164206
20	0x3eb164a0	0.34647083
21	0x3e637d0b	0.22215669
22	0x3d1c0e76	0.03809973
23	0xbeb96411	-0.36209157
24	0xbeaa8dd2	-0.33311325
25	0xbeb07a4e	-0.3446831
26	0x3ed5bfaa	0.4174779
27	0x3ef4d174	0.4781605
28	0x3db1d8f7	0.08683961
29	0xbe610dc4	-0.21977907
30	0xbdcc8349	-0.09985978
31	0xbeb737b7	-0.35784695
32	0x3e79722e	0.24359962
33	0x3ebe7d29	0.37204865
34	0xbeba29ef	-0.36360118
35	0x3f927a3b	1.1443552
36	0xbee5bcc2	-0.44870573
37	0x3f20024d	0.6250351
38	0x3e9a3f02	0.30126196
39	0x3e3fe738	0.18740547
40	0xbdb6a783	-0.08918669
41	0xbe7387d4	-0.23782283
42	0x3e00ede0	0.12590742
43	0x3f3c56d3	0.73569983
44	0xbda35b4c	-0.07976398
45	0xbe33cd71	-0.17558838
46	0xbf048927	-0.5177178
47	0x3e9b61e9	0.30348137
48	0x3e1318f5	0.14364989
49	0x3f02eeb0	0.5114546
