standard_2d.pt (torch_old, 22859 bytes, 6 tensors)

0.weight f4 [100, 2]
00000000: d207 043f 8e93 6ebf 2761 b03e ea57 013e
00000010: d4de db3c 3f14 c7be 1e60 a73f fec7 543c
00000020: 3ddf 30bf 5157 903e f124 debd 1f60 a33f
00000030: da43 773e 73fc 5d3e 7a49 52bf 36d5 7b3e
00000040: 4092 1cbf 7dd3 ae3d ab41 88be a281 08be
00000050: ecbf 25bf 0830 353e c8b9 03bd aa71 983f
00000060: a298 44be 1272 aa3f e3a6 263f 7a6d 823d
00000070: 9835 19be 4c58 67be f142 213e 1d1f 323e
00000080: 83e9 8ebe 48a6 5dbf 6e18 353d ca08 b2bf
00000090: 04b6 673e 0dfd b23d dd58 c73c 1ddb 96bf
000000a0: b1d2 303f 66a9 453f e221 61be b2eb b63f
000000b0: 5fee 833e 3bab 5a3e ae8d 6fbf 5fa0 81bd
000000c0: 1f17 9e3f 7291 f4bd c2b3 c13f 18b8 71bd
000000d0: 5dc9 7f3e a898 08be 341f 5cbf 571b 0a3e
000000e0: ad72 7dbf a68c e63e 45b5 123e 5aec 853e
000000f0: 1e2a 41be daa7 d43f a266 203f 3620 f43e
00000100: 0f3e f33e c33b 273f 37e4 aa3e e8cf a5bb
00000110: 09c0 edbe e605 4c3d abb0 c1be 4f57 f3be
00000120: c2f0 2bbe 8ef0 943f ace0 a2be 780d 79be
00000130: 73b5 7dbe 9280 343f 4a30 1b3b 15b9 51bf
00000140: 4444 81be 8462 213f bf4e 2dbe 5004 5cbe
00000150: dfb0 89be 86ed 2dbe 536b 243e fc50 c63d
00000160: 4aad 4d3e c86c ddbf d739 233e fbc6 7c3e
00000170: 9b7e dd3e f20d 02bd fda0 82bf 815c 163e
00000180: 7c56 28be 4607 95bd 5ed7 aabd 4799 aebe
00000190: a5d9 f13c 6f1e ddbe 6246 fdbd cff7 cbbe
000001a0: 1021 f83e b44c 60bd b6a1 60bf 57a2 6b3e
000001b0: 0949 b3be 07bc b03f 99a1 ee3d 6c77 a03e
000001c0: 74f9 debe 7b80 8bbd 3eb9 4f3d 6ba2 88bf
000001d0: fdb2 d0be 3f54 60bf 3a14 6c3e 906c 20bf
000001e0: 3c75 43bf 31a8 6b3e cd79 3a3f b474 a4be
000001f0: 14a3 a93e 5a66 65bf 66e9 823f 078e 33bc
00000200: 2b0b c83f e424 803f 78c1 bc3e 3062 a43d
00000210: 86b9 f3bd acc6 9ebe 4002 003e ffa3 92bf
00000220: 3470 e4be 1123 2b3d 4d51 abbf 8f84 2e3e
00000230: 0ce8 823f 650e ccbc 125c 90be 9db6 983e
00000240: 57c6 27be 8a77 9fbe d512 39bd ee01 adbe
00000250: 95e8 bd3f 6790 f93d 7e2a 37bf 3aba 503e
00000260: 28f8 8abe 3ecd 0a3f 9aa6 31bd c409 d6be
00000270: 25b6 873f d8c5 6a3c ad16 673f 7a69 b3bd
00000280: e57e cabf 1bf5 083e e908 6e3f 9c68 0fbd
00000290: 043b 463e 02fd bdbf 8b39 ddbe fdd3 4ebd
000002a0: 13d6 bc3f 3085 03be f942 6ebf a62d 063f
000002b0: 07fa b0be 784b 8dbf ea1e 71be cbbb 1ebe
000002c0: 0f2d b5bf 34f0 6abe 88bb 683e 5665 c63d
000002d0: 82c7 a23d 3dc8 b2bf f97f a9bf faf9 9cbd
000002e0: eb54 d9be 4ef7 6dbd 7b8e 7e3e 5287 4cbf
000002f0: 6dc1 5f3f d866 373f 96c8 ffbe c680 7c3f
00000300: a38e 8ebe 8830 1a3f 570c b4bd cf14 8bbf
00000310: dd76 0b3c 4781 c03e 6775 03bd 9676 8fbf
0.5157443 -0.931939 0.3444912 0.12631193 0.026839651 -0.38882634 1.3076208 0.012987135
-0.69090635 0.28191617 -0.1084689 1.2763709 0.24146977 0.21678333 -0.82143366 0.24593052
-0.6116066 0.08536432 -0.266126 -0.13330701 -0.64745975 0.17694104 -0.032159597 1.1909688
-0.1919885 1.3316061 0.650984 0.06368537 -0.1496185 -0.22592276 0.15748192 0.17394681
-0.2791253 -0.8658185 0.04421275 -1.3908932 0.22628027 0.08739672 0.024334366 -1.1785618
0.6907149 0.77211607 -0.21985582 1.4290679 0.257678 0.21354382 -0.9357556 -0.063294165
1.2350806 -0.11941804 1.5132983 -0.059013456 0.24979158 -0.13339484 -0.8598511 0.13486992
-0.99003106 0.4502918 0.14326961 0.26156884 -0.18863723 1.6613724 0.62656605 0.47680825
0.47508284 0.65325564 0.3337724 -0.0050601847 -0.46435574 0.049810313 -0.378301 -0.4752755
-0.1679106 1.1635911 -0.31812036 -0.24321544 -0.24776249 0.7050868 0.0023679906 -0.8192304
-0.25247395 0.6304095 -0.1692457 -0.2148602 -0.26892754 -0.16985139 0.16056566 0.09683415
0.20085636 -1.7298822 0.15940033 0.2468528 0.43260655 -0.03175158 -1.020538 0.14683725
-0.16439241 -0.07276778 -0.08341859 -0.34101316 0.029522726 -0.4318728 -0.1236694 -0.398375
0.48462725 -0.05476065 -0.8774675 0.23011146 -0.3501666 1.3807381 0.11651916 0.31341112
-0.43549693 -0.06811615 0.05071377 -1.0674566 -0.40761557 -0.8762855 0.23054591 -0.62665653
-0.7635076 0.23013379 0.72842103 -0.32120287 0.3313223 -0.896093 1.0227478 -0.010959155
1.5628408 1.0011258 0.36866355 0.0802654 -0.1190062 -0.3101095 0.12500858 -1.1456298
-0.44616854 0.04178149 -1.3384186 0.17042755 1.0227065 -0.024909208 -0.28195244 0.29826823
-0.16384254 -0.3114589 -0.045183975 -0.33790535 1.4836603 0.12185746 -0.7154921 0.2038354
-0.27142453 0.54219425 -0.043371774 -0.41804326 1.0602461 0.014329396 0.90268975 -0.087603524
-1.5819975 0.1337475 0.92982346 -0.035011873 0.1935845 -1.4842837 -0.43207964 -0.050495137
1.475283 -0.12843776 -0.9307094 0.52413404 -0.34565756 -1.1038656 -0.23546949 -0.15501325
-1.4154376 -0.22943193 0.22727787 0.09687297 0.07948209 -1.3967358 -1.3242179 -0.07664867
-0.424476 -0.058097176 0.2485904 -0.7989398 0.8740452 0.716413 -0.49957722 0.9863399
-0.27843198 0.602303 -0.08791416 -1.0865725 0.008512226 0.3759863 -0.032094385 -1.1208065

0.bias f4 [100]
00000000: 241b 303e b080 b3bf 74fd 553f 3eda 59be
00000010: af9b dcbc f6c2 e73e 6ec2 a5bf 15cf 283f
00000020: e48a 933f 78a0 8b3f 2e78 c13d a2fa 8c3e
00000030: 8544 a4be 9ee6 3d3f 3240 7d3f dc89 4cbf
00000040: b90b 2bbf 7dc6 e63e e721 35bf 5cfb 733f
00000050: 5fea 023f 5405 123f 266b b4bf b612 563e
00000060: 87af a1be 0873 303e e76d 0fbe bc50 083f
00000070: 3c9c 913e 58a7 89bf 8b27 cb3e f926 a73f
00000080: 6135 863f 4a03 2bbf 9e5c 653f 2939 73bf
00000090: 0a22 dcbe 8052 90bf 6dbc 0abf 6222 0b3f
000000a0: f962 86be d985 763f e90f a03f 3db9 e7be
000000b0: 894a 16bf 896a 8fbf 0193 35bf ef50 ad3d
000000c0: bf04 ca3e d60b 913f 0eef 163f 863c c83f
000000d0: 024b 68bf 88f4 fd3e 3eaf 253e be9c 95bf
000000e0: d04f c93f c8a6 4d3f 86de 20bf 1f55 083e
000000f0: 69aa 353e 5592 c33d 4069 593f d1de f2be
00000100: b1ca 10be b254 a1bf 3a9a 9b3f ba1b a63e
00000110: 0bc4 a63e b25b 3fbf 121b b5be 392d dfbe
00000120: 01d1 af3f 1ccb 783f b088 37bf f214 113e
00000130: 2fe7 b73e ce14 aa3f 9cf1 1cbf acd9 63be
00000140: d777 aabe 5dea 14bf 0e4c 6cbd 911f b83f
00000150: 1142 b53e 70ed 8a3e a882 41bf 14cd 853f
00000160: 1fd2 dcbd 59e7 57bf e17d 8c3e 814f a73e
00000170: 7c5f bc3f 8fc4 803f 5c17 f23e a443 e0be
00000180: eb0f c9bd de4c 053d ae59 6ebf 457f 883f
0.17197853 -1.4023647 0.83589864 -0.21274659 -0.026929704 0.4526593 -1.294996 0.6594098
1.1526761 1.0908346 0.094467506 0.27534968 -0.32083526 0.7418002 0.9892608 -0.79897857
-0.6681476 0.4507331 -0.70754856 0.9530542 0.5113887 0.5703938 -1.4095199 0.20905575
-0.3157923 0.17231381 -0.14006768 0.5324819 0.2843951 -1.0754194 0.39678606 1.3058769
1.048504 -0.66801894 0.8959445 -0.95009094 -0.4299472 -1.1275177 -0.54193765 0.5434934
-0.26247385 0.96297985 1.2504855 -0.45258513 -0.5870748 -1.1204387 -0.70927435 0.084627025
0.39456746 1.1331737 0.5895852 1.564347 -0.9073945 0.49600625 0.16180131 -1.1688459
1.5727482 0.80332613 -0.62839544 0.13313721 0.17740788 0.09549395 0.84926224 -0.4743562
-0.1413982 -1.2603972 1.2156441 0.3244303 0.32571444 -0.7474929 -0.35372216 -0.4358919
1.3735658 0.9718492 -0.71692944 0.14168146 0.35918567 1.3287599 -0.61306167 -0.22251004
-0.33294556 -0.5817011 -0.05768972 1.4384633 0.35401967 0.27134275 -0.7558999 1.045321
-0.10782265 -0.84337384 0.27439788 0.32677844 1.471664 1.0059985 0.47283447 -0.43801606
-0.09817489 0.03254401 -0.9310559 1.066384

2.weight f4 [50, 100]
00000000: c355 e6bd 0c02 a5be b234 cc3d a7e9 3ebe
00000010: f9ff 803e 3bb7 f7bd 05c5 ddbe 728e 563e
00000020: 8aaf a03e ef3f b13e a54f 3e3e f3e5 bdbd
00000030: ecd2 3dbe 6fc2 edbd bd26 2b3e cb41 c8bd
00000040: 6f52 c23c 7781 323e dd23 84bd 01f2 8d3d
00000050: 06b3 793d 0505 c8bd 3909 18be e32f 433e
00000060: d1b0 9bbe 3ba7 06be d969 29be 6b9a d63e
00000070: 8dc3 de3d 942d 43be 71fd 87bc 185a d13d
00000080: 2441 e23d 3beb 8ebe cce7 7f3e 8aba 3b3d
00000090: ef2a 663b 8fdf 6d3b 4577 083e a04b ac3d
000000a0: c7fa 103e 5533 803e 1a45 863e 30b7 98be
000000b0: 5aae 3f3e ab68 50bd 44e5 84be 7d37 ae3e
000000c0: 810f 2a3e 8dcf 6a3d 1280 d33c 4b06 3e3e
000000d0: 7161 cdbe 2e53 3a3e 5a81 a7bc 8938 a5bd
000000e0: 5d5c 363e 4946 163e e327 f53c 5d4d d5bd
000000f0: be72 363e df76 07be 6d95 0fbe 58b7 8bbe
00000100: 6e49 0e3d 270c a7be 2654 933d 292b 1c3d
00000110: b794 533e 77ad 2f3e b4ad 50be f2cb 863e
00000120: 7542 c63d c46f f6bb 22c4 60bd 1d10 a73e
00000130: f34c 0ebd eace 1a3d ceac b9bd 30a7 b0bd
00000140: f4f3 ac3c 4539 84be e8b5 1d3e 97ce 853e
00000150: d9c4 14be ee9e 91bd b5d9 97bd 52e5 3e3e
00000160: e654 21bc be29 acbd 6c3d 553e b484 813d
00000170: 49a9 823e 4dc6 0fbe 9fd8 bc3c 9e3c f53d
00000180: 641f 373e e37b 863c 7ec8 1e3d 4895 233e
00000190: c5f1 693d 8e63 62bd 3196 863e 39f1 59bd
000001a0: 87c7 3a3d 5d3a e3bd 24a4 86be 9c77 2b3e
000001b0: 8719 a13e 65e8 3e3e 177e 01bc 4b1b 53be
000001c0: 8896 6dbe f771 ad3d d820 b73a d079 0dbd
000001d0: 594e ad3d 694c 413e 39c5 3fbd d3fa 863e
000001e0: b86b 3bbd a674 8cbe 2f62 99bd ce54 9b3b
000001f0: 09e6 36bd 65e3 aabd 77e6 b2bd a264 2a3d
00000200: bdaa 313e a12d acbe 69f5 2fbe 0d5e 0d3b
00000210: 7706 d4bd 39e7 82bd 6241 3f3e 5037 df3c
00000220: b05f 7abe b5c3 8a3d 4112 febd ab3b 583e
00000230: e46e 54bd f94c 343e 1dd1 693e dabc ebbc
00000240: 7568 7f3e 33cf 38be 0ef2 0dbe 46d7 0b3e
00000250: eefb 89bc 13f9 343e 1abd 543e ea2f 9c3e
00000260: 4993 60be 1875 5a3d 96c5 67be d803 cabe
00000270: 68d3 5b3e c3f2 a53e 9ee1 6c3c 99fd 293d
00000280: 25c1 1d3c d927 0fbd 9edd 983d fdb4 ffbd
00000290: 7c60 5cbd 0daa a2be 1991 463e 85b3 a93e
000002a0: 2b94 503e f4c6 b5bd fc06 3ebd aec2 ca3c
000002b0: 1505 753e e0ed 073e df5c 50bc ef9a 173e
000002c0: 65d6 bdbd 020a 173e a992 563c c502 9c3c
000002d0: 0387 26bc 3127 f6bd a8a2 1e3e 1dae 963e
000002e0: 15db 64bd 1a6f 7e3d bb61 8d3c b98a 833d
000002f0: f9cd 35bb fd4b 1e3d 3c12 a13e c7c4 b83d
00000300: b754 973d 5636 3a3e a296 5d3c 92bd 18bd
00000310: 996d 473c c487 673e 0f47 2dbe bdcb 6c3e
00000320: 6847 b7be 8d89 463d f702 7dbe fc52 493e
00000330: c011 993e 05ec 473c 1f33 babd 7601 903e
00000340: cb49 6a3e cc82 e33c 3f01 523e 69ed 85bd
00000350: c4c3 1b3d 1f0a db3d c7de 3ebd 591b 49bb
00000360: 7c42 103d 8673 363c 161c 8c3b 6d53 c13d
00000370: 9797 6e3d ca5c 843d 9d75 a73c 0539 97bd
00000380: 2b4f d03c 9fed 473e 9304 a8bd 6733 b23d
00000390: b5bc 903e 5aa8 fb3d 3628 febd 56f1 9d3d
000003a0: 2c67 e33d 7219 16bd 3c58 233e 510a 13be
000003b0: 16ca a53d 85f4 19bd 0c1a a83e f02d 9f3d
000003c0: b0eb ad3e ad4d 00be eb59 313d b5c9 31be
000003d0: 2026 8a3c 5b6c d83d 25ec 47be 2a27 fb3b
000003e0: fb43 d03c dc92 58be 5946 6bbd 255d 01be
000003f0: c4eb 3cbe 8b51 483e 7f1d 873a 8158 093e
-0.112468265 -0.32228124 0.09970988 -0.18643819 0.25195292 -0.12095495 -0.43314376 0.20952776
0.31383926 0.3461909 0.1858507 -0.09272375 -0.18537492 -0.11609351 0.16713996 -0.09778174
0.023720948 0.174322 -0.06452153 0.06930924 0.060961746 -0.097665824 -0.14847268 0.19061236
-0.30408338 -0.13149731 -0.16544284 0.41914687 0.10877142 -0.19060355 -0.016600342 0.10222262
0.11047581 -0.27913842 0.24990767 0.045832194 0.0035120805 0.0036296581 0.13326748 0.08412862
0.14158164 0.25039163 0.26224595 -0.2982726 0.18718854 -0.05088107 -0.25956166 0.3402671
0.16607477 0.057326842 0.025817905 0.18557088 -0.40113404 0.18195793 -0.020447422 -0.08067424
0.17808671 0.14675249 0.029926246 -0.104151465 0.17817208 -0.1322894 -0.14021845 -0.27288318
0.034737997 -0.3262646 0.071937844 0.0381271 0.20662199 0.17156015 -0.20378762 0.26327473
0.096806444 -0.0075206477 -0.054874547 0.3262948 -0.034741353 0.037794985 -0.09066163 -0.086256385
0.02111242 -0.25824943 0.15401423 0.26134178 -0.14528216 -0.071103916 -0.07414571 0.18642166
-0.0098469015 -0.08406399 0.20824212 0.06324139 0.2551978 -0.1404049 0.023052512 0.119744524
0.17883068 0.016416496 0.038765423 0.15974915 0.057115335 -0.055270724 0.26286462 -0.053208563
0.04560044 -0.11095116 -0.26297104 0.16744846 0.31464788 0.18643339 -0.007903597 -0.2061588
-0.23201954 0.08469003 0.001397158 -0.034539998 0.08462209 0.18876804 -0.046818946 0.2636324
-0.045757025 -0.27432746 -0.0748943 0.004740334 -0.044652972 -0.08344153 -0.08735364 0.041599877
0.17350288 -0.33628562 -0.1718346 0.0021570951 -0.103527956 -0.063917585 0.18677285 0.027248055
-0.24450564 0.067756094 -0.124058254 0.21116512 -0.051863566 0.17607488 0.22833677 -0.028776575
0.24942191 -0.1804779 -0.13861868 0.13656339 -0.016843762 0.1767314 0.20775262 0.30505306
-0.21931185 0.053334326 -0.22633967 -0.39456058 0.21467364 0.32411775 0.014458088 0.041501615
0.009628569 -0.03495011 0.07464145 -0.12485693 -0.053802952 -0.31770363 0.19391288 0.33144775
0.20369022 -0.08875838 -0.04639338 0.024751034 0.2392772 0.13274336 -0.012717455 0.14805196
-0.09269408 0.14749911 0.01309649 0.01904429 -0.010164025 -0.12019194 0.15491736 0.29429713
-0.055872995 0.062117673 0.017258516 0.064229436 -0.0027741177 0.038646687 0.31459224 0.09021907
0.07389205 0.1818479 0.013524683 -0.037290163 0.012172126 0.22610384 -0.16921638 0.23124595
-0.35796666 0.048471022 -0.24708162 0.19660562 0.29896355 0.012202268 -0.09091782 0.28126115
0.22879712 0.02777233 0.20508288 -0.06539423 0.038028494 0.1069529 -0.046599176 -0.0030686466
0.035219654 0.011135941 0.004275809 0.0943974 0.058250036 0.064630106 0.020441825 -0.073839225
0.025428375 0.19524239 -0.082039975 0.087012105 0.28268972 0.1228797 -0.124100134 0.07712047
0.11103663 -0.03664536 0.15951627 -0.14359404 0.080951855 -0.037586708 0.32832372 0.07772434
0.33968878 -0.12529631 0.043298643 -0.17362101 0.016863883 0.10567542 -0.19523676 0.007664581
0.02542304 -0.21149772 -0.057440136 -0.12633188 -0.18449312 0.19562356 0.0010308473 0.13412668

2.bias f4 [50]
00000000: 9664 ea3d 5bdb bd3d 748b 87ba 3877 273e
00000010: 145a f43d a5ad 893d 7aac e63c 7d6c 29bc
00000020: b5b5 583e 009c 2e3d 16ee 933d ee60 0fbe
00000030: c94b 92be d03c 333e 0717 50be 7871 7a3d
00000040: 69ad 413e 665c 223d 369c 1a3b 4170 3abe
00000050: e943 0fbe 7e41 e73d 4950 b53d cdc3 ac3d
00000060: d5d9 afbd cf63 bb3d 2adf 18be dc8f 613e
00000070: 8a85 d13d 17dc 9abd acaa b93d ae41 243e
00000080: fed0 3a3e bb68 723d 1212 cd3c a12c 143c
00000090: f82e 68bc f0b9 833e 2b25 9fbe c366 1fbe
000000a0: a3af 673e 5925 dd3c dbbb 6e3e b07b 08be
000000b0: 0f46 1ebe 4067 1a3d 83ed 9abd 3990 77be
000000c0: d69e ed3d ca51 843d
0.114449665 0.09270354 -0.0010341243 0.16354072 0.119312435 0.06722573 0.028158415 -0.010340807
0.21163066 0.042629242 0.07223146 -0.1400182 -0.28573444 0.17503667 -0.20321284 0.06114337
0.18913807 0.0396389 0.0023591644 -0.18206884 -0.1399075 0.112917885 0.08853204 0.084357835
-0.0858647 0.09149896 -0.1492888 0.22027534 0.10230549 -0.0756151 0.09065756 0.1604068
0.18243787 0.05918191 0.02503303 0.0090438435 -0.0141713545 0.25727797 -0.31083044 -0.15566544
0.22625594 0.026995348 0.23313849 -0.13328433 -0.15456413 0.037696123 -0.07564833 -0.2417611
0.11602561 0.064609125

4.weight f4 [2, 50]
00000000: e858 9a3c afe1 3bbe de8b bcbe c69c 0cbd
00000010: c9a7 47be a2ef bc3e 940b 0abc 217d 813d
00000020: 4e07 3ebd e6b1 f7bd ff35 b73e 924e f73e
00000030: a703 3ebf 940c a43e 34c3 4f3f 60e4 36be
00000040: d92f dc3e d963 c93e 643e 683e 5f23 91bf
00000050: d6c5 e53d b566 893d 04e2 82be 32d4 c5bd
00000060: a20c bf3e f2f9 c7bc abe8 88bd 1293 a0be
00000070: 8bd4 283d 12bd 77bd fbbb b1be 2766 4a3f
00000080: 06ac bd3e 1f2a 023e 34e4 393f 8473 96be
00000090: 2346 193f 0da3 29be 8eb4 993f c1ef e93d
000000a0: 8f70 e1be 5cf8 4a3e 7390 d4bc 09ae a03e
000000b0: b0e2 acbe 334c be3e be36 903e 5529 833f
000000c0: 95c4 6d3d 1d9d 393c 89e6 ebbe 4f45 1b3d
000000d0: e1c8 5c3e 1d32 dc3e 5464 763e 9a0a 7bbd
000000e0: f000 08bd ea2d ccbd 0bda b1be c104 f73d
000000f0: dd5a 6fbd 42cb 06bf e501 283f c8d5 65bf
00000100: 8299 77bf 442e b13d f780 6e3d e625 1dbe
00000110: a177 1cbe 9582 7e3f 86e9 d5bd 0e87 09bf
00000120: f2fc 203c 8920 de3d 0747 13bc 6071 f43e
00000130: 4ba7 b83e 552a 2bbf 0a61 01bf 2035 a4be
00000140: 4b58 813d 6911 afbe 336f cdbe 9483 5b3d
00000150: feaa 6ebd 57a2 5d3d d59f 1abf 1c68 6a3e
00000160: ff7d 80bf 9add 24bf 2013 553f f7e5 41be
00000170: bc41 cfbe f69e 5dbe 559f 70bd 7f32 fcbe
00000180: d0da 8c3c c2e9 8dbf 8fa9 dcbc 5cbe e9be
0.018841222 -0.1834781 -0.3682546 -0.0343292 -0.19497599 0.36901575 -0.008425612 0.063226946
-0.046393685 -0.12094478 0.35783383 0.48302132 -0.74224323 0.32040846 0.8115723 -0.17860556
0.43005255 0.3933399 0.2268005 -1.1338919 0.11219375 0.06709043 -0.2556306 -0.09659614
0.37314326 -0.024411175 -0.06685003 -0.31362206 0.04121832 -0.060483046 -0.3471373 0.7906212
0.37045306 0.1271138 0.72613835 -0.29385006 0.59872645 -0.16566105 1.2008226 0.114226826
-0.44031188 0.19821304 -0.025947785 0.31382778 -0.337667 0.3716751 0.28166765 1.0246989
0.058048803 0.011328963 -0.46074322 0.037907895 0.21561004 0.43006983 0.2406171 -0.061289407
-0.03320402 -0.09969695 -0.34736666 0.120614536 -0.058436263 -0.52653897 0.6562789 -0.8977933
-0.9671861 0.086514026 0.05822846 -0.15346488 -0.1528001 0.99418 -0.10444932 -0.537217
0.009825932 0.10846049 -0.008989102 0.47742748 0.36065134 -0.6686147 -0.50538695 -0.3207178
0.06315669 -0.3419297 -0.401239 0.05359228 -0.05826854 0.054109897 -0.60400134 0.22891277
-1.0038451 -0.6440064 0.8323231 -0.18935381 -0.4047984 -0.2164267 -0.0587457 -0.49257275
0.017194182 -1.1086962 -0.02693632 -0.45653045

4.bias f4 [2]
00000000: 62b0 23be edd3 b83d
-0.15985253 0.09024797
